weights/nc.onnx (onnx, 380592 bytes, 26 tensors)

dense_1/kernel:0 f4 [64, 10]
0.46656364 0.2529923 -0.016796948 -0.01991152 -1.0394945 0.33394852 -1.1486677 -1.0375296
-1.2395827 0.28415474 0.86986697 0.73653656 -0.3467917 -0.4216024 0.7367177 -0.6366348
0.9114192 -0.5306128 -0.7163789 0.7960043 -1.9008443 -0.39177832 -1.2443143 -1.6801051
-0.20639683 -1.86881 -0.3683634 -0.29240277 -0.26969576 -0.29583785 -1.8127105 -1.1060187
-0.4734887 -1.2700524 -0.29805723 -0.118490666 -0.31021297 -1.6501504 -0.2268977 -0.38281336
-0.22109963 -0.50864846 -0.40824774 -1.6580293 -0.49567676 -1.9332638 -0.84170467 -0.37334764
-1.7830589 -0.39345577 1.0201983 -0.50055873 -0.42145926 0.6736186 0.777139 -0.6445751
0.73719007 -0.49316794 -0.5837374 0.82307476 0.50462675 -0.8269173 -0.46695855 0.5199454
0.48159987 -0.8819515 0.5780037 0.41701394 -0.7392839 -0.8064775 -1.9880279 -0.30713585
-1.3710021 -0.2888231 -0.41268098 -0.16571951 -1.2114449 -1.1016564 -0.16948842 -0.15977484
0.17577231 -0.23491353 -0.84239274 -1.130915 0.17628238 0.28320122 -0.637161 -0.039516255
-0.7380076 -1.5151839 -1.7134141 -1.322452 -1.0531 -0.07568113 -0.5647989 -1.2107705
0.04890371 -0.056949314 -0.35665476 -0.072016284 0.52172345 -0.7741699 -0.7791098 -0.89559674
-0.82997984 0.2935833 0.44624424 0.28509662 0.35671973 -0.9256248 0.56449294 -0.76672524
0.51591486 0.5234318 0.5853499 -0.9773765 0.6041325 -0.79271066 -0.88047487 -0.92368525
-1.0905585 0.23152585 -0.007868361 -0.004550399 -0.7541429 0.2856479 0.35457218 -0.85182065
-1.0649627 -0.94205856 -0.17590758 -0.02866113 -1.3911891 -1.5220541 -1.5815676 -0.12446221
-0.20615691 -1.1128136 -0.10797614 -1.2351636 0.38980412 -1.1584461 -0.2948155 -0.43487054
-1.1906679 0.15362777 0.48610172 -1.0204262 0.33972567 -0.7046865 -0.55251676 0.8745479
-0.6167151 -0.4862079 -0.42692804 0.94755393 -0.70981044 -0.52615225 0.84697413 0.95880616
-1.6008141 -0.2762232 -0.4687183 -0.28674152 -1.59239 -1.4286342 -0.3049856 -1.7635887
-0.40942392 -0.30457443 0.6155828 -0.73105675 -0.04891937 -0.60113704 -0.72662425 0.63741475
0.414079 -0.72913146 -0.9251375 0.5360378 -0.119681634 -0.15123802 -1.1885428 -0.28602603
-1.4900559 0.077092595 -1.3994036 -0.10748964 -1.1447062 -0.17633323 -0.2596281 -0.2588574
-0.3203069 -1.5025778 -1.3014425 -0.29054448 -1.4721261 -0.37982637 -0.2760747 -1.8995965
0.7695437 -0.5459143 -0.6723945 -0.61597705 0.6148092 0.6747738 0.69187194 -0.67698306
-0.621749 0.6937504 0.4255092 0.2557114 -1.0288429 -1.2087557 -1.1620318 0.28747645
-1.3254287 -1.0331854 0.33087686 -0.026757557 0.98535526 0.8916913 -0.22053503 0.6615302
0.7074932 -0.40595716 -0.41790852 -0.30575883 -0.47033668 0.8868787 0.13839892 -1.0883101
-0.17329071 0.049192525 -0.06442307 -1.4404598 0.1541005 -0.999187 0.113808066 -1.420236
-0.41336754 -0.4772735 -1.835645 -1.8699677 -1.6852912 -0.46291316 -0.32194114 -0.40256792
-0.6308292 -0.471247 -1.9174777 -1.3214965 -0.42563573 -1.6400257 -0.4757338 -0.28835535
00000000: 6ee1 ee3e 3588 813e c199 89bc 7c1d a3bc
00000010: 280e 85bf 4dfb aa3e 8b07 93bf c5cd 84bf
00000020: a5aa 9ebf bb7c 913e 9aaf 5e3f a98d 3c3f
00000030: af8e b1be 45dc d7be 8899 3c3f 80fa 22bf
00000040: c552 693f 3ed6 07bf 9c64 37bf f0c6 4b3f
00000050: de4e f3bf 2b97 c8be b145 9fbf af0d d7bf
00000060: b159 53be 2b35 efbf 219a bcbe d1b5 95be
00000070: 9015 8abe 0f78 97be e606 e8bf 0592 8dbf
00000080: 1c6d f2be 1491 a2bf f59a 98be 3cab f2bd
00000090: 3cd4 9ebe 2138 d3bf df57 68be 1d00 c4be
000000a0: f167 62be c936 02bf d905 d1be 4e3a d4bf
000000b0: 58c9 fdbe 3075 f7bf f579 57bf 6c27 bfbe
000000c0: 463b e4bf 0973 c9be dc95 823f 9e24 00bf
000000d0: 82c9 d7be 4572 2c3f 95f2 463f e002 25bf
000000e0: 7db8 3c3f 8280 fcbe d06f 15bf 07b5 523f
000000f0: 382f 013f dab0 53bf 3115 efbe 241b 053f
00000100: 4294 f63e 93c7 61bf 0df8 133f da82 d53e
00000110: b641 3dbf 4f75 4ebf b377 febf e940 9dbe
00000120: ff7c afbf 9fe0 93be ec4a d3be 60b2 29be
00000130: a010 9bbf 1403 8dbf 5f8e 2dbe 049c 23be
00000140: a8fd 333e 2c8d 70be 0da7 57bf d3c1 90bf
00000150: 5e83 343e c0ff 903e fc1c 23bf ccdb 21bd
00000160: 11ee 3cbf 8cf1 c1bf 2751 dbbf 1b46 a9bf
00000170: fbcb 86bf b5fe 9abd a996 10bf 87fa 9abf
00000180: 424f 483d af43 69bd 749b b6be 467d 93bd
00000190: ab8f 053f 0030 46bf bd73 47bf d445 65bf
000001a0: 8f79 54bf 8d50 963e 207a e43e 2ff8 913e
000001b0: f8a3 b63e bff5 6cbf 9c82 103f 1b48 44bf
000001c0: ff12 043f a0ff 053f 7ed9 153f 5935 7abf
000001d0: 6da8 1a3f 16ef 4abf cd66 61bf a376 6cbf
000001e0: 6c97 8bbf 1d15 6d3e 4cea 00bc 831b 95bb
000001f0: 820f 41bf 7140 923e 7c8a b53e eb10 5abf
00000200: b350 88bf c02a 71bf 1e21 34be bfca eabc
00000210: 7c12 b2bf abd2 c2bf cf70 cabf 0be6 febd
00000220: cc1a 53be ad70 8ebf 9822 ddbd d719 9ebf
00000230: 6894 c73e f647 94bf 0ff2 96be 5aa7 debe
00000240: ce67 98bf 9950 1d3e 53e2 f83e 539d 82bf
00000250: 86f0 ad3e 5666 34bf bd71 0dbf 5fe2 5f3f
00000260: 0ae1 1dbf 3ef0 f8be 5096 dabe e592 723f
00000270: 23b6 35bf eab1 06bf 4cd3 583f 5274 753f
00000280: 7ae7 ccbf 216d 8dbe d8fb efbe c9cf 92be
00000290: 6fd3 cbbf 7cdd b6bf 1327 9cbe 46bd e1bf
000002a0: 03a0 d1be 2ef1 9bbe d696 1d3f 8926 3bbf
000002b0: ad5f 48bd 1ee4 19bf 0c04 3abf 9d2d 233f
000002c0: 2a02 d43e 5ca8 3abf d0d5 6cbf c639 093f
000002d0: a51b f5bd 24de 1abe 2c22 98bf 0172 92be
000002e0: 27ba bebf b9e2 9d3d a81f b3bf 8723 dcbd
000002f0: bc85 92bf b390 34be f9ed 84be f588 84be
00000300: 44ff a3be 7854 c0bf ab95 a6bf 3fc2 94be
00000310: a16e bcbf 9a78 c2be aa59 8dbe fa25 f3bf
00000320: d100 453f 0ac1 0bbf 0c22 2cbf acb0 1dbf
00000330: 2364 1d3f fabd 2c3f 851e 313f c34e 2dbf
00000340: f12a 1fbf a099 313f 58dc d93e 9bec 823e
00000350: 20b1 83bf 82b8 9abf 75bd 94bf 1d30 933e
00000360: a6a7 a9bf 6b3f 84bf b168 a93e aa32 dbbc
00000370: 3e40 7c3f e245 643f efd3 61be 0b5a 293f
00000380: 461e 353f 9ed9 cfbe 1bf8 d5be 6c8c 9cbe
00000390: f8cf f0be 7c0a 633f 72b8 0d3e bf4d 8bbf
000003a0: 1f73 31be 1a7e 493d 3ef0 83bd fd60 b8bf
000003b0: 85cc 1d3e b8ca 7fbf 3414 e93d 4bca b5bf
000003c0: e9a4 d3be 315d f4be 6af6 eabf 1a5b efbf
000003d0: 9fb7 d7bf f402 edbe 78d5 a4be 621d cebe
000003e0: 067e 21bf 4947 f1be e96f f5bf cc26 a9bf
000003f0: edec d9be 5dec d1bf 6193 f3be 50a3 93be

dense_1/bias:0 f4 [10]
-1.8029373 0.08767364 0.472839 0.49490333 -0.07566589 -1.0132029 -0.9677806 0.094719626
-0.5371452 -0.588496
00000000: a6c6 e6bf 3d8e b33d f417 f23e f863 fd3e
00000010: b8f6 9abd a2b0 81bf 78c0 77bf 5dfc c13d
00000020: 5982 09bf ada7 16bf

scale f4 [64]
0.06986099 0.055417184 0.10063064 0.07322866 0.072109886 0.057285633 0.05900938 0.072923996
0.07617367 0.07314806 0.074354574 0.061324384 0.052431587 0.07023439 0.065661855 0.063734494
0.07708843 0.058055464 0.07128373 0.1156034 0.05674596 0.080488056 0.052310262 0.05984098
0.07484411 0.058087308 0.058157444 0.05208696 0.06615195 0.060212113 0.07024415 0.064611614
0.06002908 0.07235134 0.05854475 0.07869078 0.08729197 0.07497402 0.07755688 0.06049207
0.06724356 0.06901852 0.06315038 0.08106555 0.06420078 0.053739566 0.09833677 0.059985474
0.098100044 0.057019778 0.054822713 0.06253048 0.060789257 0.06290145 0.05581515 0.05615788
0.096121855 0.0709743 0.099787734 0.08174423 0.07798511 0.06204766 0.058535304 0.06126064
00000000: 4713 8f3d 21fd 623d 7017 ce3d e8f8 953d
00000010: 59ae 933d 57a4 6a3d d2b3 713d 2d59 953d
00000020: f100 9c3d a6ce 953d 3647 983d 472f 7b3d
00000030: 81c2 563d 0cd7 8f3d b979 863d 3b87 823d
00000040: 8ae0 9d3d 91cb 6d3d 34fd 913d 7ac1 ec3d
00000050: 746e 683d ecd6 a43d 4943 563d d11b 753d
00000060: de47 993d f5ec 6d3d 8036 6e3d 2359 553d
00000070: ac7a 873d faa0 763d 2adc 8f3d 1853 843d
00000080: 0de1 753d f02c 943d 9fcc 6f3d a228 a13d
00000090: 22c6 b23d fb8b 993d 24d6 9e3d 88c6 773d
000000a0: feb6 893d 9559 8d3d fd54 813d b205 a63d
000000b0: b37b 833d 051e 5c3d ca64 c93d 54b3 753d
000000c0: ade8 c83d 928d 693d c88d 603d fb0f 803d
000000d0: 28fe 783d 7ad2 803d 6d9e 643d ce05 663d
000000e0: 89db c43d f95a 913d 835d cc3d 8569 a73d
000000f0: a8b6 9f3d b025 7e3d b7c2 6f3d 70ec 7a3d

bias f4 [64]
-1.4181484 -1.370309 -0.13227403 -0.16455182 -0.16274595 -1.4656612 -1.3102127 -0.17664985
-0.244842 -0.29242966 -0.22664112 -1.7430545 -0.38324666 -0.1774228 -0.14223132 -1.635232
-0.22289312 -1.0279725 -0.25173077 -0.17916602 -1.1432747 -0.1378449 -1.3748872 -0.15120268
-0.13836898 -0.26205313 -1.3337579 -1.3201473 -0.11481901 -1.412167 -0.19358179 -1.557925
-0.34175625 -0.2666344 -1.5859766 -0.15166342 -0.22634816 -0.24809717 -0.15005587 -1.3966099
-0.18635763 -0.22418067 -0.22413497 -0.24035585 -0.6954576 -1.1191473 -0.09383713 -0.18490586
-0.21184544 -1.4798666 -1.3485571 -0.15781225 -0.10689292 -1.3906751 -1.0143093 -0.2948074
-0.14825366 -0.23670334 -0.12921363 -0.1580142 -0.24867223 -0.34281144 -0.19225408 -0.17370993
00000000: e385 b5bf 4966 afbf d872 07be 4680 28be
00000010: e0a6 26be c99a bbbf 0db5 a7bf b3e3 34be
00000020: dcb7 7abe 57b9 95be 9c14 68be 691c dfbf
00000030: e838 c4be 53ae 35be 16a5 11be 484f d1bf
00000040: 183e 64be 9a94 83bf dbe2 80be 4c77 37be
00000050: d356 92bf 3727 0dbe 4efc afbf e0d4 1abe
00000060: 99b0 0dbe d42b 86be 94b8 aabf 96fa a8bf
00000070: 3b26 ebbd e3c1 b4bf 4e3a 46be 166a c7bf
00000080: adfa aebe 4e84 88be 4801 cbbf a84d 1bbe
00000090: d0c7 67be 2f0d 7ebe 3fa8 19be 1dc4 b2bf
000000a0: 89d4 3ebe 9e8f 65be a383 65be d81f 76be
000000b0: 8209 32bf 3840 8fbf ae2d c0bd f657 3dbe
000000c0: 03ee 58be 456c bdbf 859d acbf 8999 21be
000000d0: adea dabd a401 b2bf e3d4 81bf fff0 96be
000000e0: cfcf 17be 5c62 72be 9450 04be 79ce 21be
000000f0: efa3 7ebe fb84 afbe 41de 44be 04e1 31be

mean f4 [64]
0.0 0.0 0.0 0.0 0.0 0.0 0.0 0.0
0.0 0.0 0.0 0.0 0.0 0.0 0.0 0.0
0.0 0.0 0.0 0.0 0.0 0.0 0.0 0.0
0.0 0.0 0.0 0.0 0.0 0.0 0.0 0.0
0.0 0.0 0.0 0.0 0.0 0.0 0.0 0.0
0.0 0.0 0.0 0.0 0.0 0.0 0.0 0.0
0.0 0.0 0.0 0.0 0.0 0.0 0.0 0.0
0.0 0.0 0.0 0.0 0.0 0.0 0.0 0.0
00000000: 0000 0000 0000 0000 0000 0000 0000 0000
00000010: 0000 0000 0000 0000 0000 0000 0000 0000
00000020: 0000 0000 0000 0000 0000 0000 0000 0000
00000030: 0000 0000 0000 0000 0000 0000 0000 0000
00000040: 0000 0000 0000 0000 0000 0000 0000 0000
00000050: 0000 0000 0000 0000 0000 0000 0000 0000
00000060: 0000 0000 0000 0000 0000 0000 0000 0000
00000070: 0000 0000 0000 0000 0000 0000 0000 0000
00000080: 0000 0000 0000 0000 0000 0000 0000 0000
00000090: 0000 0000 0000 0000 0000 0000 0000 0000
000000a0: 0000 0000 0000 0000 0000 0000 0000 0000
000000b0: 0000 0000 0000 0000 0000 0000 0000 0000
000000c0: 0000 0000 0000 0000 0000 0000 0000 0000
000000d0: 0000 0000 0000 0000 0000 0000 0000 0000
000000e0: 0000 0000 0000 0000 0000 0000 0000 0000
000000f0: 0000 0000 0000 0000 0000 0000 0000 0000

var f4 [64]
1.0 1.0 1.0 1.0 1.0 1.0 1.0 1.0
1.0 1.0 1.0 1.0 1.0 1.0 1.0 1.0
1.0 1.0 1.0 1.0 1.0 1.0 1.0 1.0
1.0 1.0 1.0 1.0 1.0 1.0 1.0 1.0
1.0 1.0 1.0 1.0 1.0 1.0 1.0 1.0
1.0 1.0 1.0 1.0 1.0 1.0 1.0 1.0
1.0 1.0 1.0 1.0 1.0 1.0 1.0 1.0
1.0 1.0 1.0 1.0 1.0 1.0 1.0 1.0
00000000: 0000 803f 0000 803f 0000 803f 0000 803f
00000010: 0000 803f 0000 803f 0000 803f 0000 803f
00000020: 0000 803f 0000 803f 0000 803f 0000 803f
00000030: 0000 803f 0000 803f 0000 803f 0000 803f
00000040: 0000 803f 0000 803f 0000 803f 0000 803f
00000050: 0000 803f 0000 803f 0000 803f 0000 803f
00000060: 0000 803f 0000 803f 0000 803f 0000 803f
00000070: 0000 803f 0000 803f 0000 803f 0000 803f
00000080: 0000 803f 0000 803f 0000 803f 0000 803f
00000090: 0000 803f 0000 803f 0000 803f 0000 803f
000000a0: 0000 803f 0000 803f 0000 803f 0000 803f
000000b0: 0000 803f 0000 803f 0000 803f 0000 803f
000000c0: 0000 803f 0000 803f 0000 803f 0000 803f
000000d0: 0000 803f 0000 803f 0000 803f 0000 803f
000000e0: 0000 803f 0000 803f 0000 803f 0000 803f
000000f0: 0000 803f 0000 803f 0000 803f 0000 803f

conv2d_4/kernel:0 f4 [64, 64, 3, 3]
0.04810609 0.021307658 0.008946588 0.1137231 0.16039814 0.055895638 0.065176 0.029251
0.083161056 -0.04362215 -0.018887911 0.029770039 -0.09570978 -0.08448627 0.038379386 -0.11520349
-0.0990671 -0.11796911 -5.486938e-05 -5.486938e-05 -5.486938e-05 -5.486938e-05 -5.486938e-05 -5.486938e-05
-5.486938e-05 -5.486938e-05 -5.486938e-05 0.042935602 0.019519508 0.11309451 0.006589585 0.13895823
0.030016493 -0.039082423 -0.045740765 -0.19871317 -4.897319e-05 -4.897319e-05 -4.897319e-05 -4.897319e-05
-4.897319e-05 -4.897319e-05 -4.897319e-05 -4.897319e-05 -4.897319e-05 -0.04936255 -0.10573733 -0.116404615
-0.02924208 0.004263974 -0.04425151 0.04259663 0.006379741 -0.017014647 -0.018650733 0.020289997
0.11756748 0.09871182 0.10446124 0.15412109 -0.00030331904 0.029689228 0.093145706 0.075241104
0.070209555 0.09154464 0.09853656 0.035237588 0.07091919 0.048829533 0.069114834 0.17968354
-0.1816499 -0.1562445 -0.18727605 -0.07870766 -0.14395137 -0.17628822 -0.19243336 -0.20688714
-0.29663166 -0.038002696 -0.018208615 0.051272918 -0.004242871 -0.02757457 0.05859773 0.0162147
0.121783346 0.030119091 0.045777403 0.014781587 0.07102272 0.045493938 0.025568169 0.08909506
0.10118566 0.10374303 0.15641955 0.006149414 -0.076217644 0.019665463 0.04821087 0.016555084
0.026626715 0.12156473 0.06309046 0.08560944 -0.06970857 -0.14184222 -0.0044502867 0.07843221
-0.06769365 -0.09322814 -0.0064213015 -0.019042894 -0.018024035 0.00010264032 0.00010264032 0.00010264032
0.00010264032 0.00010264032 0.00010264032 0.00010264032 0.00010264032 0.00010264032 -0.046570636 -0.028040623
0.016533185 0.04598883 -0.018006124 0.018959086 -0.028094932 0.008208528 0.06438177 0.078142315
0.09409074 0.04839337 0.19053362 0.12434301 0.12993228 0.09374389 0.10819147 0.08902177
-0.06308105 0.091109924 0.07710057 -0.07662859 -0.005747122 0.01703836 -0.027424378 0.01535593
0.07994393 -0.06328619 -0.09444682 -0.041817173 -0.031005226 0.023381993 -0.054295074 -0.07740012
-0.007940131 -0.058350977 -0.072873145 -0.04332891 -0.0436345 -0.0050676167 -0.06492952 -0.012336326
-0.055781756 -0.10814032 -0.09052044 -2.7967444e-06 -2.7967444e-06 -2.7967444e-06 -2.7967444e-06 -2.7967444e-06
-2.7967444e-06 -2.7967444e-06 -2.7967444e-06 -2.7967444e-06 -0.029001547 -0.08349776 -0.048051167 0.011136951
-0.005880338 -0.032021135 0.069552444 -0.04295448 -0.029290713 -0.04079928 -0.04959228 -0.106230974
0.00016797295 -0.038008697 -0.0100462455 -0.018029615 -0.03669719 -0.0075472863 0.024850098 0.0047087185
-0.09862055 -0.05233139 -0.116896674 -0.17225128 0.056186654 -0.06818727 0.0030524754 5.2649206e-08
5.2649206e-08 5.2649206e-08 5.2649206e-08 5.2649206e-08 5.2649206e-08 5.2649206e-08 5.2649206e-08 5.2649206e-08
-0.03836875 0.057014074 0.058180943 0.013077194 0.08393212 0.06852054 -0.016753193 0.06270813
0.12013208 0.055689633 0.09187591 0.16702212 -0.0011415957 0.095152505 0.08205947 0.116102666
0.026273381 0.062988035 0.0048428727 -0.035209563 -0.0037925143 0.047559507 0.0069202688 0.012038032
-0.06734097 -0.1168548 -0.109984644 0.08944948 -0.027106272 -0.069868885 -0.051922295 0.0029296693
-0.050256703 0.0096094245 0.07335555 -0.0026680524 3.814862e-08 3.814862e-08 3.814862e-08 3.814862e-08
00000000: e40a 453d 668d ae3c b694 123c a8e7 e83d
00000010: 693f 243e d3f2 643d ff7a 853d cb9f ef3c
00000020: 5850 aa3d 24ad 32bd d2ba 9abc 4ce0 f33c
00000030: 7d03 c4bd 2307 adbd b433 1d3d cfef ebbd
00000040: b1e3 cabd ca99 f1bd 8c23 66b8 8c23 66b8
00000050: 8c23 66b8 8c23 66b8 8c23 66b8 8c23 66b8
00000060: 8c23 66b8 8c23 66b8 8c23 66b8 3edd 2f3d
00000070: 60e7 9f3c 189e e73d 72ed d73b 114b 0e3e
00000080: 26e5 f53c e414 20bd ab5a 3bbd 777b 4bbe
00000090: 9068 4db8 9068 4db8 9068 4db8 9068 4db8
000000a0: 9068 4db8 9068 4db8 9068 4db8 9068 4db8
000000b0: 9068 4db8 6330 4abd d08c d8bd 8b65 eebd
000000c0: 168d efbc ceb8 8b3b 1241 35bd ce79 2e3d
000000d0: 250d d13b 4d62 8bbc 6cc9 98bc 3537 a63c
000000e0: 38c7 f03d 6c29 ca3d c6ef d53d ebd1 1d3e
000000f0: cb06 9fb9 d336 f33c 2dc3 be3d 0218 9a3d
00000100: 07ca 8f3d c27b bb3d 89cd c93d 4a55 103d
00000110: 153e 913d 7a01 483d 148c 8d3d f6fe 373e
00000120: 6e02 3abe 8ffe 1fbe 4bc5 3fbe 7b31 a1bd
00000130: fd67 13be e684 34be 400d 45be 39da 53be
00000140: 1be0 97be b7a8 1bbd 3c2a 95bc 8d03 523d
00000150: c807 8bbb 11e4 e1bc 2c04 703d b1d4 843c
00000160: 8c69 f93d 50bc f63c 1681 3b3d 782e 723c
00000170: 5c74 913d da57 3a3d 5674 d13c 7977 b63d
00000180: 6d3a cf3d 3a77 d43d 722c 203e 0681 c93b
00000190: ff17 9cbd 7719 a13c c378 453d 879e 873c
000001a0: 4520 da3c eef6 f83d 9235 813d 0154 af3d
000001b0: 5ec3 8ebd 163f 11be b6d3 91bb 11a1 a03d
000001c0: f8a2 8abd 65ee bebd c869 d2bb d8ff 9bbc
000001d0: 24a7 93bc 9a40 d738 9a40 d738 9a40 d738
000001e0: 9a40 d738 9a40 d738 9a40 d738 9a40 d738
000001f0: 9a40 d738 9a40 d738 dac0 3ebd 73b5 e5bc
00000200: 9a70 873c c95e 3c3d 9481 93bc 1650 9b3c
00000210: 5827 e6bc 107d 063c 97da 833d 1409 a03d
00000220: a5b2 c03d 2038 463d 3f1b 433e 8ca7 fe3d
00000230: f80c 053e ccfc bf3d 7d93 dd3d 0c51 b63d
00000240: a330 81bd d797 ba3d e7e6 9d3d 73ef 9cbd
00000250: 5b52 bcbb 0894 8b3c 17a9 e0bc 7097 7b3c
00000260: a5b9 a33d 319c 81bd 566d c1bd 7c48 2bbd
00000270: acfe fdbc 988b bf3c 8364 5ebd f483 9ebd
00000280: 5317 02bc 6f01 6fbd 843e 95bd a879 31bd
00000290: 17ba 32bd 400e a6bb c5f9 84bd 4d1e 4abc
000002a0: 697b 64bd ac78 ddbd c862 b9bd b4af 3bb6
000002b0: b4af 3bb6 b4af 3bb6 b4af 3bb6 b4af 3bb6
000002c0: b4af 3bb6 b4af 3bb6 b4af 3bb6 b4af 3bb6
000002d0: a794 edbc e000 abbd 4dd1 44bd c277 363c
000002e0: daaf c0bb 9828 03bd 8371 8e3d 09f1 2fbd
000002f0: 14f3 efbc 251d 27bd 4621 4bbd a08f d9bd
00000300: e521 3039 02af 1bbd 0299 24bc d8b2 93bc
00000310: cb4f 16bd 3a4f f7bb 6f92 cb3c 984b 9a3b
00000320: 92f9 c9bd 7159 56bd 8667 efbd a462 30be
00000330: fa23 663d c4a5 8bbd 0a0c 483b 6a20 6233
00000340: 6a20 6233 6a20 6233 6a20 6233 6a20 6233
00000350: 6a20 6233 6a20 6233 6a20 6233 6a20 6233
00000360: 8d28 1dbd 9787 693d 244f 6e3d ba41 563c
00000370: 9ae4 ab3d 7f54 8c3d fe3d 89bc 1f6d 803d
00000380: cf07 f63d d01a 643d 7029 bc3d d907 2b3e
00000390: 98a1 95ba 51df c23d cc0e a83d 3cc7 ed3d
000003a0: 463b d73c dfff 803d f6b0 9e3b e737 10bd
000003b0: d58b 78bb c2cd 423d 6cc3 e23b 2a3b 453c
000003c0: 10ea 89bd 9251 efbd a13f e1bd 4a31 b73d
000003d0: f90d debc 6b17 8fbd 79ac 54bd b2ff 3f3b
000003e0: f9d9 4dbd d970 1d3c 6f3b 963d 7eda 2ebb
000003f0: dad8 2333 dad8 2333 dad8 2333 dad8 2333

conv2d_4/bias:0 f4 [64]
23.810522 23.315208 1.3347319 0.99204147 3.8452094 26.431957 23.089306 3.4654155
4.5503507 3.9328635 2.2044477 28.306515 5.7656355 0.971585 0.6278252 24.235006
1.9466285 15.807933 5.6495733 3.8945706 19.65542 2.7809575 26.46797 1.8106792
2.309051 3.4055014 22.280796 27.122152 2.1464646 23.537027 1.706935 21.986599
3.9405243 4.5661016 27.12031 1.180072 1.5810307 2.7789483 2.9855604 21.198383
4.571644 1.7556351 5.259126 4.5672374 9.018602 21.188261 2.1009598 2.3033123
4.3201046 23.977854 22.503046 4.228932 2.5047297 19.682001 16.11843 4.174996
1.3156703 3.191424 1.0879321 2.4892488 1.9386152 5.5149407 3.0722291 3.093671
00000000: f37b be41 8c85 ba41 7fd8 aa3f 6ef6 7d3f
00000010: e917 7640 a674 d341 e6b6 b841 5ec9 5d40
00000020: 799c 9140 09b4 7b40 ac15 0d40 be73 e241
00000030: 1680 b840 cbb9 783f 27b9 203f 4be1 c141
00000040: 1f2b f93f 4bed 7c41 4ec9 b440 a540 7940
00000050: 4d3e 9d41 35fb 3140 67be d341 56c4 e73f
00000060: 7ec7 1340 bcf3 5940 123f b241 2bfa d841
00000070: ad5f 0940 d54b bc41 d97c da3f 8ee4 af41
00000080: 8d31 7c40 811d 9240 65f6 d841 990c 973f
00000090: 375f ca3f 4ada 3140 6c13 3f40 4a96 a941
000000a0: e84a 9240 a7b8 e03f c34a a840 cf26 9240
000000b0: 324c 1041 8f81 a941 2076 0640 7869 1340
000000c0: 4c3e 8a40 a5d2 bf41 3d06 b441 6953 8740
000000d0: 7e4d 2040 bd74 9d41 8bf2 8041 9199 8540
000000e0: e267 a83f 4a40 4c40 5c41 8b3f da4f 1f40
000000f0: 8b24 f83f 657a b040 679f 4440 b5fe 4540

scale1 f4 [64]
0.42885423 0.8772582 2.5682201 0.9517165 0.030207923 0.3178576 0.8479414 0.71054256
1.1451207 0.84226364 0.79795885 0.38129544 1.1730864 0.025404822 0.54575264 0.83675814
0.2378964 0.5579626 0.4990027 -0.040749975 0.8986129 1.0514172 0.9720225 0.09571296
1.1327724 0.3886719 0.99507666 0.432582 -0.005753549 0.67551494 0.72139883 0.063527875
0.8065855 0.8428306 0.6990123 1.2377465 0.67204636 0.4804398 0.6523467 0.41453502
0.9490602 1.0873383 0.6907496 0.82277215 0.6051292 0.8139781 0.9189993 0.85515064
0.70098984 0.8677335 0.8089323 0.56700206 0.8137245 0.88739777 0.59489137 1.3185455
0.69304585 0.6356165 -0.017054703 0.4492281 1.1207725 0.5743516 1.0534922 0.38685328
00000000: c892 db3e fe93 603f b85d 2440 b1a3 733f
00000010: 9b76 f73c 3bbe a23e b012 593f 1ee6 353f
00000020: 5193 923f 979e 573f 0847 4c3f 2839 c33e
00000030: b227 963f c61d d03c 72b6 0b3f c835 563f
00000040: 1d9b 733e a3d6 0e3f 487d ff3e 72e9 26bd
00000050: 7f0b 663f d794 863f 77d6 783f 2805 c43d
00000060: b0fe 903f 0100 c73e 58bd 7e3f 637b dd3e
00000070: 4488 bcbb 8cee 2c3f 98ad 383f e71a 823d
00000080: 637c 4e3f bfc3 573f 78f2 323f 7a6e 9e3f
00000090: 3b0b 2c3f 35fc f53e 3100 273f ef3d d43e
000000a0: 9cf5 723f e72d 8b3f f7d4 303f 32a1 523f
000000b0: bfe9 1a3f de60 503f 8a43 6b3f 27eb 5a3f
000000c0: 1274 333f c823 5e3f 3016 4f3f 0c27 113f
000000d0: 4050 503f 802c 633f cd4a 183f 19c6 a83f
000000e0: 746b 313f c3b7 223f 4eb6 8bbc 3a01 e63e
000000f0: 7975 8f3f b508 133f d5d8 863f a211 c63e

bias1 f4 [64]
-0.2680797 -0.18816799 -0.010928868 0.19800574 -0.0115204435 -0.4517204 -0.19666235 -0.13361984
0.25989085 -0.23270133 -0.16521347 -0.49371168 -0.01901853 0.0020792522 -0.03681752 -0.06509769
-1.3822564 -0.20228082 -0.2769149 -8.205465e-05 -0.35114247 -0.25265658 -0.3125419 5.3254e-06
0.08097619 -0.33815688 -0.040464222 -0.20956832 1.9287738e-06 -0.059299648 -0.19219732 5.96447e-05
-0.3862437 0.048260868 -0.16740328 0.000121601915 -0.3110971 -0.124656945 -0.48748493 -0.7320756
-0.12755251 0.11094314 -0.18748271 -0.04778242 -0.3369301 0.26659083 -0.081343085 0.17010283
-0.28699955 0.06563687 0.010869831 -0.24711254 0.008233978 0.00024051529 -0.30197272 -0.047596395
-0.40771633 -0.34891278 0.0008564191 -0.39059487 -0.08361542 -0.36177337 0.09491655 -0.39935362
00000000: be41 89be 1caf 40be ff0e 33bc 04c2 4a3e
00000010: 3ec0 3cbc e547 e7be db61 49be a4d3 08be
00000020: 6a10 853e 4249 6ebe b82d 29be c7c7 fcbe
00000030: c0cc 9bbc 1044 083b f8cd 16bd f051 85bd
00000040: c7ed b0bf b422 4fbe cac7 8dbe c114 acb8
00000050: f2c8 b3be 345c 81be 7e05 a0be d6b0 b236
00000060: d8d6 a53d e622 adbe d0bd 25bd 1499 56be
00000070: 1570 0136 30e4 72bd 60cf 44be 022b 7a38
00000080: bcc1 c5be 30ad 453d c46b 2bbe 8804 ff38
00000090: 1e48 9fbe 244c ffbd a097 f9be 4e69 3bbf
000000a0: 209d 02be 2836 e33d 78fb 3fbe 80b7 43bd
000000b0: 1a82 acbe 987e 883e 3497 a6bd 702f 2e3e
000000c0: 9bf1 92be a06c 863d 6017 323c 120b 7dbe
000000d0: cfe7 063c d532 7c39 2b9c 9abe 70f4 42bd
000000e0: 32c0 d0be b2a4 b2be 5081 603a 0dfc c7be
000000f0: 903e abbd 5c3a b9be 9c63 c23d 1478 ccbe

mean1 f4 [64]
0.0 0.0 0.0 0.0 0.0 0.0 0.0 0.0
0.0 0.0 0.0 0.0 0.0 0.0 0.0 0.0
0.0 0.0 0.0 0.0 0.0 0.0 0.0 0.0
0.0 0.0 0.0 0.0 0.0 0.0 0.0 0.0
0.0 0.0 0.0 0.0 0.0 0.0 0.0 0.0
0.0 0.0 0.0 0.0 0.0 0.0 0.0 0.0
0.0 0.0 0.0 0.0 0.0 0.0 0.0 0.0
0.0 0.0 0.0 0.0 0.0 0.0 0.0 0.0
00000000: 0000 0000 0000 0000 0000 0000 0000 0000
00000010: 0000 0000 0000 0000 0000 0000 0000 0000
00000020: 0000 0000 0000 0000 0000 0000 0000 0000
00000030: 0000 0000 0000 0000 0000 0000 0000 0000
00000040: 0000 0000 0000 0000 0000 0000 0000 0000
00000050: 0000 0000 0000 0000 0000 0000 0000 0000
00000060: 0000 0000 0000 0000 0000 0000 0000 0000
00000070: 0000 0000 0000 0000 0000 0000 0000 0000
00000080: 0000 0000 0000 0000 0000 0000 0000 0000
00000090: 0000 0000 0000 0000 0000 0000 0000 0000
000000a0: 0000 0000 0000 0000 0000 0000 0000 0000
000000b0: 0000 0000 0000 0000 0000 0000 0000 0000
000000c0: 0000 0000 0000 0000 0000 0000 0000 0000
000000d0: 0000 0000 0000 0000 0000 0000 0000 0000
000000e0: 0000 0000 0000 0000 0000 0000 0000 0000
000000f0: 0000 0000 0000 0000 0000 0000 0000 0000

var1 f4 [64]
1.0 1.0 1.0 1.0 1.0 1.0 1.0 1.0
1.0 1.0 1.0 1.0 1.0 1.0 1.0 1.0
1.0 1.0 1.0 1.0 1.0 1.0 1.0 1.0
1.0 1.0 1.0 1.0 1.0 1.0 1.0 1.0
1.0 1.0 1.0 1.0 1.0 1.0 1.0 1.0
1.0 1.0 1.0 1.0 1.0 1.0 1.0 1.0
1.0 1.0 1.0 1.0 1.0 1.0 1.0 1.0
1.0 1.0 1.0 1.0 1.0 1.0 1.0 1.0
00000000: 0000 803f 0000 803f 0000 803f 0000 803f
00000010: 0000 803f 0000 803f 0000 803f 0000 803f
00000020: 0000 803f 0000 803f 0000 803f 0000 803f
00000030: 0000 803f 0000 803f 0000 803f 0000 803f
00000040: 0000 803f 0000 803f 0000 803f 0000 803f
00000050: 0000 803f 0000 803f 0000 803f 0000 803f
00000060: 0000 803f 0000 803f 0000 803f 0000 803f
00000070: 0000 803f 0000 803f 0000 803f 0000 803f
00000080: 0000 803f 0000 803f 0000 803f 0000 803f
00000090: 0000 803f 0000 803f 0000 803f 0000 803f
000000a0: 0000 803f 0000 803f 0000 803f 0000 803f
000000b0: 0000 803f 0000 803f 0000 803f 0000 803f
000000c0: 0000 803f 0000 803f 0000 803f 0000 803f
000000d0: 0000 803f 0000 803f 0000 803f 0000 803f
000000e0: 0000 803f 0000 803f 0000 803f 0000 803f
000000f0: 0000 803f 0000 803f 0000 803f 0000 803f

conv2d_3/kernel:0 f4 [64, 64, 3, 3]
-0.077025354 -0.05721859 -0.053451356 -0.048897892 -0.00967596 -0.1406616 0.050454326 0.012855667
0.09141672 -0.07875431 0.014247616 0.06955522 -0.20189574 0.058528475 -0.0021065858 -0.14290366
-0.016657941 -0.1638339 -0.09655742 -0.028231656 0.028162707 -0.18706651 -0.079893455 0.053288374
-0.057048526 -0.041757114 -0.031388924 0.06869345 0.036331546 -0.12603486 0.08928414 0.0048434013
-0.15007089 0.10896603 -0.059613883 -0.0771533 0.084126376 0.11114479 0.021587292 -0.0069675418
0.046216425 -0.0050744084 -0.11659974 -0.06649772 0.079884194 -0.005075414 -0.021962639 0.05699247
-0.030575063 -0.057775844 0.06315228 0.0015945184 -0.09191789 -0.04341168 0.053609785 0.06518161
0.02998733 0.016290188 -0.08007364 -0.026332667 -0.08622809 -0.057014182 -0.11710065 -0.033244804
-0.06293572 -0.09867694 0.081144385 -0.0036084645 -0.090476505 0.022060776 0.010650516 -0.08209201
0.08727569 0.08195495 0.04422462 0.101978816 0.0009718904 0.17366958 -0.041319236 0.02326929
0.0029153854 -0.062331736 -0.049412705 0.0014721646 -0.06743675 -0.050949913 0.052709136 0.058842175
0.029370705 0.19839792 -0.0068524117 -0.0036125532 0.09225829 -0.100619346 -0.07566596 0.06626744
-0.10170799 -0.0131021645 0.106875814 -0.040505506 0.05674279 0.08698903 0.014879294 0.035433963
0.16093548 -0.03062604 -0.020817451 0.044022605 0.013439293 0.050176047 0.1581083 0.03099336
-0.03990467 0.1446952 -0.119605094 -0.009910791 0.06971872 -0.025868472 -0.028176926 0.013216889
0.009529063 0.0019219859 0.014852582 -0.008963687 0.022462578 -0.06646079 -0.104314886 -0.10396683
-0.08192674 0.059002575 -0.08079362 -0.0511283 0.01697637 0.01590135 -0.035366457 -0.12153193
0.04138432 -0.0014536141 0.00654403 -0.06909876 0.07293344 0.07664596 -0.08511326 -0.031835698
-0.05606651 -0.10228778 -0.12495512 0.08089259 0.07034865 -0.09576858 0.110150166 0.02989016
0.034042455 -0.056688994 -0.046837214 -0.14126669 0.15220456 0.0033464357 -0.13394864 0.08382825
-0.053662423 -0.10167404 -0.16320725 -0.054402143 -0.046460144 -0.07988924 -0.028916711 -0.14134344
-0.05160861 -0.032738153 -0.113802925 -0.14526552 -0.080351345 -0.08014449 -0.10442117 -0.041234214
-0.12759733 -0.08408312 -0.045946114 -0.066512525 -0.05038762 -0.033051316 0.13830629 -0.033628836
-0.08036138 0.09969394 -0.10506078 0.0072544604 0.06161962 0.060558524 0.11908276 -0.014721688
0.05564419 0.051581766 0.17125103 -0.004569816 0.068674766 0.1714255 0.039722823 0.10400186
0.06989096 0.04003784 -0.046345413 0.053766523 -0.08818885 0.0761672 0.06138749 -0.044717222
-0.088180326 -0.14882226 -0.003446766 -0.05500141 -0.1698228 0.014526056 -0.07425438 -0.2935103
-0.015338062 0.076780684 -0.055539176 -0.01019161 0.044353276 0.062177178 -0.095960796 0.02872716
0.049529456 0.03256751 -0.019654265 -0.12524696 -0.09250191 0.008469854 -0.10957537 -0.22163779
-0.08614021 -0.2204566 -0.01741994 -0.015771735 -0.022270752 -0.01825198 0.0013577791 -0.13225032
-0.1272012 -0.040165562 -0.16987878 0.12704553 0.0130989915 0.06937358 0.02759828 0.032720324
0.05255594 -0.0535679 -0.040617608 -0.035119083 -0.10305624 0.010185912 -0.040953293 -0.034276873
00000000: 78bf 9dbd 0a5e 6abd cfef 5abd 2849 48bd
00000010: eb87 1ebc 9809 10be 32a9 4e3d 93a0 523c
00000020: b038 bb3d f149 a1bd d56e 693c f872 8e3d
00000030: c2bd 4ebe 8ebb 6f3d a50e 0abb 5655 12be
00000040: 3c76 88bc 13c4 27be e6bf c5bd 1346 e7bc
00000050: 7ab5 e63c 5d8e 3fbe 2e9f a3bd e944 5a3d
00000060: b7ab 69bd 8209 2bbd ac91 00bd 27af 8c3d
00000070: 63d0 143d 480f 01be 9ada b63d 65b5 9e3b
00000080: 2fac 19be 9529 df3d b02d 74bd 8d02 9ebd
00000090: 734a ac3d e19f e33d d5d7 b03c fa4f e4bb
000000a0: 6f4d 3d3d 3947 a6bb d8cb eebd f52f 88bd
000000b0: 539a a33d a94f a6bb feea b3bc f070 693d
000000c0: 8e78 fabc 5da6 6cbd fc55 813d 29ff d03a
000000d0: 723f bcbd 72d0 31bd ef95 5b3d f07d 853d
000000e0: fda7 f53c 0073 853c a6fd a3bd 9bb7 d7bc
000000f0: 5a98 b0bd b487 69bd 77d2 efbd b42b 08bd
00000100: 71e4 80bd 2317 cabd 072f a63d fd7b 6cbb
00000110: bf4b b9bd cdb8 b43c 807f 2e3c db1f a8bd
00000120: 99bd b23d ffd7 a73d e024 353d 45da d03d
00000130: 76c6 7e3a 70d6 313e 5c3e 29bd 3d9f be3c
00000140: 0d10 3f3b 904f 7fbd fa64 4abd a6f5 c03a
00000150: 471c 8abd dbb0 50bd 89e5 573d 7e04 713d
00000160: d59a f03c d328 4b3e 328a e0bb 96c0 6cbb
00000170: eaf1 bc3d 8411 cebd c1f6 9abd 39b7 873d
00000180: 474c d0bd 76aa 56bc b5e1 da3d 1ae9 25bd
00000190: 216b 683d 4e27 b23d 48c8 733c 3423 113d
000001a0: 45cc 243e 76e3 fabc 5c89 aabc 0c51 343d
000001b0: 7b30 5c3c 6685 4d3d 24e7 213e c9e5 fd3c
000001c0: 1473 23bd fa2a 143e 84f3 f4bd df60 22bc
000001d0: b0c8 8e3d 1eea d3bc 4cd3 e6bc a78b 583c
000001e0: c91f 1c3c 25eb fb3a 3e58 733c 6edc 12bc
000001f0: 7103 b83c 981c 88bd 0ba3 d5bd 90ec d4bd
00000200: 35c9 a7bd afac 713d 2077 a5bd e96b 51bd
00000210: 0712 8b3c 8c43 823c 6bdc 10bd bce5 f8bd
00000220: 9b82 293d 3287 beba 4d6f d63b a783 8dbd
00000230: 215e 953d 8ff8 9c3d dc4f aebd 2666 02bd
00000240: ffa5 65bd 417c d1bd 78e8 ffbd 04ab a53d
00000250: f412 903d 5122 c4bd 6996 e13d 35dc f43c
00000260: 1a70 0b3d b832 68bd 61d8 3fbd 37a8 10be
00000270: 83db 1b3e e04f 5b3b d529 09be 25ae ab3d
00000280: 21cd 5bbd 7b3a d0bd cd1f 27be c8d4 5ebd
00000290: fe4c 3ebd f89c a3bd bde2 ecbc 56bc 10be
000002a0: 8d63 53bd 7118 06bd 8211 e9bd 7cc0 14be
000002b0: 3f8f a4bd cb22 a4bd c4da d5bd 35e5 28bd
000002c0: e0a8 02be c533 acbd fe31 3cbd b837 88bd
000002d0: 4063 4ebd d160 07bd 2aa0 0d3e 64be 09bd
000002e0: 8294 a4bd 562c cc3d 1b2a d7bd d3b6 ed3b
000002f0: db64 7c3d 370c 783d a9e1 f33d 3c33 71bc
00000300: 2aeb 633d 6747 533d 6e5c 2f3e 65be 95bb
00000310: 5ba5 8c3d 2b8a 2f3e 66b4 223d edfe d43d
00000320: fe22 8f3d b8fe 233d b0d4 3dbd 493a 5c3d
00000330: 5b9c b4bd 8dfd 9b3d 7371 7b3d 6829 37bd
00000340: e397 b4bd dd64 18be 23e3 61bb 2949 61bd
00000350: 07e6 2dbe b2fe 6d3c ae12 98bd fb46 96be
00000360: 7f4c 7bbc 313f 9d3d 0c7d 63bd b6fa 26bc
00000370: c8ab 353d 7fad 7e3d 1887 c4bd 3955 eb3c
00000380: 66df 4a3d 8265 053d fb01 a1bc bd40 00be
00000390: a471 bdbd 24c5 0a3c 0d69 e0bd 04f5 62be
000003a0: 476a b0bd 60bf 61be 43b4 8ebc ba33 81bc
000003b0: 2771 b6bc 2d85 95bc 82f7 b13a a16c 07be
000003c0: 0841 02be a584 24bd b4f4 2dbe 3918 023e
000003d0: 279d 563c bc13 8e3d ca15 e23c bf05 063d
000003e0: e644 573d 046a 5bbd a65e 26bd 07d9 0fbd
000003f0: 260f d3bd d0e2 263c a4be 27bd e865 0cbd

conv2d_3/bias:0 f4 [64]
-3.1705995 -2.7286186 -3.8850017 -3.142591 -0.07806597 -0.5833726 -3.8524778 -3.7643218
-2.0423803 -4.8443694 -2.9281442 1.3246888 -2.763087 -0.4205677 -2.460286 -1.7492664
5.440868 -2.348922 -0.42849967 -0.26568714 -2.8167422 -4.135374 -3.2443287 -1.4102489
-3.0879228 -0.9605373 -2.8400984 -1.3300766 -0.75929505 -2.8163524 -3.355014 -0.20012991
-1.3278223 -2.541866 -1.9009398 -2.1838489 -1.4682708 -2.7304335 -2.2858155 3.2733808
-4.086275 -4.5643134 -1.4342064 -3.1510043 -2.2128057 -2.6954992 -1.8350096 -2.6641753
-1.7774327 -2.3769083 -1.8701677 -2.8294685 -0.33578503 -1.2107204 -1.6442505 -3.157546
-3.5069993 -3.0811381 -1.0775385 -1.2460674 -2.7661784 -2.0659847 -2.5574832 2.292554
00000000: 1aeb 4ac0 b0a1 2ec0 dea3 78c0 3620 49c0
00000010: 0de1 9fbd e857 15bf ff8e 76c0 a6ea 70c0
00000020: 5cb6 02c0 1305 9bc0 b766 3bc0 678f a93f
00000030: 6bd6 30c0 a654 d7be 5375 1dc0 f6e7 dfbf
00000040: 971b ae40 bd54 16c0 4f64 dbbe 2508 88be
00000050: 8145 34c0 fc54 84c0 15a3 4fc0 0983 b4bf
00000060: 87a0 45c0 c6e5 75bf 2cc4 35c0 f33f aabf
00000070: 2961 42bf 1e3f 34c0 8db8 56c0 dbee 4cbe
00000080: 15f6 a9bf efad 22c0 ff51 f3bf 2ec4 0bc0
00000090: 4cf0 bbbf 6cbf 2ec0 cd4a 12c0 127f 5140
000000a0: c4c2 82c0 db0e 92c0 1394 b7bf 0eaa 49c0
000000b0: 9c9e 0dc0 0f83 2cc0 98e1 eabf d981 2ac0
000000c0: ea82 e3bf 441f 18c0 a861 efbf 0316 35c0
000000d0: 04ec abbe e3f8 9abf cd76 d2bf 3c15 4ac0
000000e0: ad72 60c0 5e31 45c0 c8ec 89bf 237f 9fbf
000000f0: 1109 31c0 1839 04c0 cead 23c0 34b9 1240

scale2 f4 [64]
0.52619797 0.5642259 0.56365836 0.8133136 0.5197339 0.79055846 0.755023 0.7622404
0.6326524 0.7276027 0.27388024 0.6904786 0.8968304 0.63961005 0.51691544 0.7523994
0.5509583 0.63462186 0.70214164 0.8251145 0.5607242 0.5306002 0.64006203 1.2231975
0.5341109 0.32503015 0.819772 1.054713 0.46770376 0.5895528 0.46689647 0.45590416
0.750657 0.8068917 0.54309523 0.55138654 1.0598361 0.987122 0.7309441 0.6451214
0.9398501 1.6526358 0.49646187 0.58872736 0.68584 0.8850256 0.5740831 0.59497726
1.0873725 0.6416002 0.56300926 0.7260934 0.7137405 0.81275433 1.0398885 1.3097125
0.6631777 0.8684245 0.8158855 0.57571024 1.0056423 0.47430322 0.76547295 0.49806997
00000000: e9b4 063f 1c71 103f ea4b 103f 5235 503f
00000010: 480d 053f 0a62 4a3f 3049 413f 3022 433f
00000020: 82f5 213f 2c44 3a3f 083a 8c3e 35c3 303f
00000030: ad96 653f 7cbd 233f 9254 043f 3f9d 403f
00000040: 9a0b 0d3f 9476 223f 8ebf 333f b43a 533f
00000050: 9f8b 0f3f 6ad5 073f 1bdb 233f bc91 9c3f
00000060: 7ebb 083f 5a6a a63e 94dc 513f d600 873f
00000070: de76 ef3e efec 163f 0e0d ef3e 456c e93e
00000080: 0f2b 403f 7490 4e3f 4a08 0b3f ab27 0d3f
00000090: b6a8 873f 07b4 7c3f 271f 3b3f ad26 253f
000000a0: 049a 703f 9289 d33f 4030 fe3e d6b6 163f
000000b0: 3693 2f3f 0a91 623f 1cf7 123f 6e50 183f
000000c0: 062f 8b3f e93f 243f 6021 103f 42e1 393f
000000d0: b3b7 363f ab10 503f 111b 853f a9a4 a73f
000000e0: 04c6 293f 1151 5e3f dfdd 503f bf61 133f
000000f0: e3b8 803f dfd7 f23e 09f6 433f 0703 ff3e

bias2 f4 [64]
-0.4330303 -0.34196264 -0.30652106 -0.5039657 -0.34438765 -0.1744734 -0.15957579 -0.3673749
-0.2185434 -0.40744585 0.089487195 -0.36048025 -0.109170616 -0.47166705 -0.30460858 -0.24616775
-0.5801077 -0.3581282 -0.31342915 -0.34488374 -0.16948584 -0.43820646 -0.25544125 -0.096515
-0.1463083 -0.4102553 -0.3023443 -0.11766738 -0.2856511 -0.1796484 -0.21565092 -0.3469779
-0.45433196 -0.30870518 -0.48248202 -0.31101218 -0.46842533 -0.3775664 -0.24704152 -0.6193986
-0.07950491 -0.23915017 -0.3391651 -0.43712774 -0.31809813 -0.12764433 -0.5028266 -0.36810967
-0.33901697 -0.1438151 -0.44413447 -0.3930626 -0.4670073 -0.46732998 -0.33269644 -0.31854883
-0.27595776 -0.22859877 -0.22388047 -0.36548167 -0.14345092 -0.17267627 -0.17575496 -0.66591334
00000000: 26b6 ddbe ba15 afbe 54f0 9cbe e503 01bf
00000010: 9453 b0be 28a9 32be d667 23be 9018 bcbe
00000020: d7c9 5fbe be9c d0be 1045 b73d de90 b8be
00000030: d894 dfbd 587e f1be a8f5 9bbe 6613 7cbe
00000040: f081 14bf 945c b7be c979 a0be 9a94 b0be
00000050: b28d 2dbe 995c e0be 32c9 82be a8a9 c5bd
00000060: d8d1 15be fc0c d2be dfcc 9abe 98fb f0bd
00000070: dc40 92be c0f5 37be 98d3 5cbe 16a7 b1be
00000080: 339e e8be 9b0e 9ebe e207 f7be fd3c 9fbe
00000090: 72d5 efbe 6250 c1be 74f8 7cbe e890 1ebf
000000a0: 78d3 a2bd c8e3 74be 0ca7 adbe 35cf dfbe
000000b0: c2dd a2be 32b5 02be 3eb9 00bf df78 bcbe
000000c0: a293 adbe 4444 13be 9865 e3be 803f c9be
000000d0: 951b efbe e045 efbe 3057 aabe d518 a3be
000000e0: 564a 8dbe cc15 6abe ec40 65be 6a20 bbbe
000000f0: cce4 12be 0cd2 30be 1cf9 33be 4c79 2abf

mean2 f4 [64]
0.0 0.0 0.0 0.0 0.0 0.0 0.0 0.0
0.0 0.0 0.0 0.0 0.0 0.0 0.0 0.0
0.0 0.0 0.0 0.0 0.0 0.0 0.0 0.0
0.0 0.0 0.0 0.0 0.0 0.0 0.0 0.0
0.0 0.0 0.0 0.0 0.0 0.0 0.0 0.0
0.0 0.0 0.0 0.0 0.0 0.0 0.0 0.0
0.0 0.0 0.0 0.0 0.0 0.0 0.0 0.0
0.0 0.0 0.0 0.0 0.0 0.0 0.0 0.0
00000000: 0000 0000 0000 0000 0000 0000 0000 0000
00000010: 0000 0000 0000 0000 0000 0000 0000 0000
00000020: 0000 0000 0000 0000 0000 0000 0000 0000
00000030: 0000 0000 0000 0000 0000 0000 0000 0000
00000040: 0000 0000 0000 0000 0000 0000 0000 0000
00000050: 0000 0000 0000 0000 0000 0000 0000 0000
00000060: 0000 0000 0000 0000 0000 0000 0000 0000
00000070: 0000 0000 0000 0000 0000 0000 0000 0000
00000080: 0000 0000 0000 0000 0000 0000 0000 0000
00000090: 0000 0000 0000 0000 0000 0000 0000 0000
000000a0: 0000 0000 0000 0000 0000 0000 0000 0000
000000b0: 0000 0000 0000 0000 0000 0000 0000 0000
000000c0: 0000 0000 0000 0000 0000 0000 0000 0000
000000d0: 0000 0000 0000 0000 0000 0000 0000 0000
000000e0: 0000 0000 0000 0000 0000 0000 0000 0000
000000f0: 0000 0000 0000 0000 0000 0000 0000 0000

var2 f4 [64]
1.0 1.0 1.0 1.0 1.0 1.0 1.0 1.0
1.0 1.0 1.0 1.0 1.0 1.0 1.0 1.0
1.0 1.0 1.0 1.0 1.0 1.0 1.0 1.0
1.0 1.0 1.0 1.0 1.0 1.0 1.0 1.0
1.0 1.0 1.0 1.0 1.0 1.0 1.0 1.0
1.0 1.0 1.0 1.0 1.0 1.0 1.0 1.0
1.0 1.0 1.0 1.0 1.0 1.0 1.0 1.0
1.0 1.0 1.0 1.0 1.0 1.0 1.0 1.0
00000000: 0000 803f 0000 803f 0000 803f 0000 803f
00000010: 0000 803f 0000 803f 0000 803f 0000 803f
00000020: 0000 803f 0000 803f 0000 803f 0000 803f
00000030: 0000 803f 0000 803f 0000 803f 0000 803f
00000040: 0000 803f 0000 803f 0000 803f 0000 803f
00000050: 0000 803f 0000 803f 0000 803f 0000 803f
00000060: 0000 803f 0000 803f 0000 803f 0000 803f
00000070: 0000 803f 0000 803f 0000 803f 0000 803f
00000080: 0000 803f 0000 803f 0000 803f 0000 803f
00000090: 0000 803f 0000 803f 0000 803f 0000 803f
000000a0: 0000 803f 0000 803f 0000 803f 0000 803f
000000b0: 0000 803f 0000 803f 0000 803f 0000 803f
000000c0: 0000 803f 0000 803f 0000 803f 0000 803f
000000d0: 0000 803f 0000 803f 0000 803f 0000 803f
000000e0: 0000 803f 0000 803f 0000 803f 0000 803f
000000f0: 0000 803f 0000 803f 0000 803f 0000 803f

conv2d_2/kernel:0 f4 [64, 32, 3, 3]
0.09851341 -0.011401477 -0.21367705 0.13060953 0.11059198 -0.07618034 -0.022962613 0.031894103
0.09520017 -0.0004527491 -0.0007623926 -0.0004230109 -0.001249573 -0.0015865387 -0.0011391117 -0.00093086355
-0.00022653906 -0.0013815274 0.07122212 0.12325061 -0.19685405 -0.061824508 0.03571246 -0.038243342
-0.16854142 -0.037483066 -0.10372171 -0.013819821 0.021342639 -0.02489286 0.0034404115 -0.022468805
-0.018120565 -0.013078806 -0.052139997 -0.035603918 -9.789275e-05 -2.0648422e-05 1.32351215e-05 -2.296403e-05
2.4472138e-06 -0.00027442546 0.00011316729 3.659425e-05 -4.226083e-05 -0.0062647504 -0.17687911 -0.13442567
-0.048329633 -0.17646447 -0.29508048 0.0897867 -0.0851939 -0.18828724 0.07205656 0.009207336
-0.14158626 0.035873704 -0.042346675 -0.1465652 0.05252932 -0.065014325 0.037056796 -0.09426175
-0.08755294 0.031198869 0.09157833 -0.20104618 0.11937451 0.033714686 -0.26219687 -0.03806501
-0.07747144 -0.027255518 -0.13424748 0.14839537 -0.02282531 -0.10933697 -0.028116427 0.009123658
0.06772137 -0.00027526118 1.5141458e-05 -0.00036899347 -0.0001577705 -7.262279e-05 -0.00013082247 -0.00029754709
-0.00021110217 -0.00029943066 -0.1266321 -0.18093006 0.19834933 0.051828668 -0.34318036 0.011934629
0.06586263 -0.18926114 -0.41270298 0.008256748 0.0033652652 0.011536363 0.0073868106 0.013665818
-0.002147483 -0.005116049 0.005126502 -0.00082161115 0.0060529807 -0.00069481466 0.0015006108 0.006577014
0.0061306767 -0.0019491274 -0.0012192405 0.0012474499 -0.0010100033 -0.00088433805 -7.198134e-05 0.0034052983
-0.00039473054 -0.002702536 -0.0009031913 0.003878108 -0.006184905 -0.0031587468 0.0014416352 -0.002643577
-0.0011818302 0.0010367928 -0.0023046697 0.00033449163 -0.0009181736 -0.00078001054 -0.000859903 -0.009715663
-0.0057249037 -0.010790674 -0.01131259 -0.009068916 -0.005585611 -0.0106391 -0.0026550984 -0.0077383146
0.0017752395 0.003212314 0.00034183916 0.001914452 -0.0010503364 -0.0005005252 -0.0024101362 -0.00052340375
0.0034291237 -0.00040683264 0.00071973953 0.0010253825 -3.7026388e-05 1.7566319e-05 -0.00026063184 0.0015539512
-0.00015294594 0.0007968261 0.00055509224 -0.00077210175 -0.0004589139 -0.00044766464 -0.0007700967 -8.144321e-05
0.0001757599 0.00066066027 -8.222158e-05 0.0049423124 0.005382542 0.0022407225 -0.00032177602 0.0025501573
-0.00066012045 -0.00033769902 0.0029119665 0.0051364377 0.07075739 -0.079744086 0.05495431 0.12269022
-0.09212657 0.12382733 0.122843064 -0.05783158 -0.11041369 0.0023785525 0.00822112 -0.042595636
0.026570352 0.022705173 -0.030445669 0.025231551 0.039745808 -0.038020343 0.0046908837 0.08128732
-0.34266445 -0.10970396 -0.028029526 -0.010708091 -0.23764421 0.05285752 0.09446871 0.0036492387
0.0018512956 0.0028928632 0.004057166 0.002276181 0.0030638822 0.000713946 0.0021316418 0.00019417513
-0.000102620856 -7.824984e-05 -0.00011840874 -0.00013153904 -6.8430534e-05 -4.1542047e-05 -6.43843e-05 -0.00012588216
-0.00017274142 -0.074879 0.13543378 -0.31952226 -0.10171665 0.049694136 -0.06724992 -0.18166488
0.09781774 0.08902595 -0.0029971902 -0.0002879622 0.0003758646 -0.002422365 -0.0015508481 -0.0017229167
-0.0006033786 -0.0066873687 -0.006837965 0.13106203 0.015631035 -0.029019438 0.042376526 -0.10185471
0.07925184 -0.00046667008 -0.20958571 -0.07626174 -0.015328119 0.0057914928 -0.10030818 0.06529406
00000000: 66c1 c93d 43cd 3abc 28ce 5abe 81be 053e
00000010: 0c7e e23d 7004 9cbd 171c bcbc 64a3 023d
00000020: 4ff8 c23d f55e edb9 4ddb 47ba 90c7 ddb9
00000030: b6c8 a3ba 68f3 cfba 3f4e 95ba 3205 74ba
00000040: 1e8b 6db9 5e14 b5ba e7dc 913d d16a fc3d
00000050: 1c94 49be b23b 7dbd 3a47 123d 0da5 1cbd
00000060: 1f96 2cbe d887 19bd 0c6c d4bd 886c 62bc
00000070: c2d6 ae3c 1cec cbbc 8778 613b 8010 b8bc
00000080: 9471 94bc 7d48 56bc c090 55bd 6ad5 11bd
00000090: c54b cdb8 2636 adb7 6a0c 5e37 e1a2 c0b7
000000a0: d03a 2436 c3e0 8fb9 3a54 ed38 c77c 1938
000000b0: 3841 31b8 8948 cdbb cc1f 35be e2a6 09be
000000c0: 4bf5 45bd 1ab3 34be ca14 97be 17e2 b73d
000000d0: 247a aebd 5fce 40be 6492 933d 5eda 163c
000000e0: fdfb 10be 4ef0 123d b573 2dbd 3015 16be
000000f0: fc28 573d 3b26 85bd dec8 173d 4e0c c1bd
00000100: f54e b3bd c594 ff3c 6b8d bb3d 0ddf 4dbe
00000110: a07a f43d 6918 0a3d ab3e 86be 0eea 1bbd
00000120: 59a9 9ebd f746 dfbc 2c78 09be f5f4 173e
00000130: 25fc babc 10ec dfbd 6c54 e6bc 657b 153c
00000140: 80b1 8a3d ee50 90b9 1108 7e37 7775 c1b9
00000150: 326f 25b9 104d 98b8 642d 09b9 1800 9cb9
00000160: 4f5b 5db9 e7fc 9cb9 d8ab 01be bb45 39be
00000170: 161c 4b3e 4c4a 543d 56b5 afbe 7689 433c
00000180: fde2 863d accd 41be ce4d d3be 5047 073c
00000190: c88b 5c3b 0303 3d3c 0f0d f23b 98e6 5f3c
000001a0: c9bc 0cbb 88a4 a7bb 37fc a73b 6461 57ba
000001b0: 1558 c63b 3924 36ba 25b0 c43a fe83 d73b
000001c0: d8e3 c83b dd79 ffba ecce 9fba 7981 a33a
000001d0: 1662 84ba ecd2 67ba b0f4 96b8 6d2b 5f3b
000001e0: d6f3 ceb9 081d 31bb 24c4 6cba db27 7e3b
000001f0: beaa cabb fa02 4fbb 40f5 bc3a dd3f 2dbb
00000200: a4e7 9aba fee4 873a f109 17bb b55e af39
00000210: 96b1 70ba 9f79 4cba 1d6b 61ba 722e 1fbc
00000220: f997 bbbb 5ecb 30bc 7158 39bc ca95 14bc
00000230: 8007 b7bb 9f4f 2ebc 2901 2ebb b091 fdbb
00000240: 27af e83a b085 523b e038 b339 59ee fa3a
00000250: 71ab 89ba ad35 03ba 60f3 1dbb 0835 09ba
00000260: 26bb 603b 274c d5b9 e7ac 3c3a 2166 863a
00000270: c84c 1bb8 625b 9337 6aa5 88b9 f3ad cb3a
00000280: 1d60 20b9 18e2 503a 9c83 113a df66 4aba
00000290: 629a f0b9 88b4 eab9 51e0 49ba 7ecc aab8
000002a0: 304c 3839 2930 2d3a 606e acb8 1ff3 a13b
000002b0: 0960 b03b 16d9 123b 0cb4 a8b9 8a20 273b
000002c0: ef0b 2dba 320d b1b9 b1d6 3e3b 904f a83b
000002d0: 40e9 903d de50 a3bd c517 613d 0345 fb3d
000002e0: dbac bcbd 2f99 fd3d 2595 fb3d cfe0 6cbd
000002f0: 9320 e2bd 7de1 1b3b e0b1 063c c378 2ebd
00000300: 11aa d93c 3300 ba3c 3269 f9bc 66b2 ce3c
00000310: 80cc 223d 38bb 1bbd fcb5 993b f779 a63d
00000320: b771 afbe 78ac e0bd 2d9e e5bc fd70 2fbc
00000330: 0159 73be 2081 583d d078 c13d 1128 6f3b
00000340: 2ca7 f23a 3196 3d3b faf1 843b fb2b 153b
00000350: 6acb 483b 1b28 3b3a 04b3 0b3b 7d9b 4b39
00000360: 2736 d7b8 101a a4b8 3552 f8b8 beed 09b9
00000370: 5d82 8fb8 6f3d 2eb8 0f06 87b8 3cff 03b9
00000380: ec21 35b9 295a 99bd 27af 0a3e 6c98 a3be
00000390: d250 d0bd 148c 4b3d 53ba 89bd 5c06 3abe
000003a0: ab54 c83d 3d53 b63d 826c 44bb a2f9 96b9
000003b0: b10f c539 8ac0 1ebb d445 cbba 7ed3 e1ba
000003c0: 0d2c 1eba b721 dbbb 0211 e0bb 2035 063e
000003d0: a80c 803c 2cba edbc 0293 2d3d 3499 d0bd
000003e0: ca4e a23d 66ab f4b9 a39d 56be 1d2f 9cbd
000003f0: ca22 7bbc 90c6 bd3b 606e cdbd e4b8 853d

conv2d_2/bias:0 f4 [64]
-1.1218615 -0.6160195 -1.1847115 -1.4471037 -0.89727765 -2.1359856 -1.1920117 -1.197106
-1.1972662 -1.1159765 -1.6603987 -1.2344394 -2.4043505 -1.5989882 -2.0624268 -1.4411553
-0.6096458 -1.8175147 -2.076676 -0.7375181 -1.5035346 -0.9209971 -1.4874583 -3.3449836
-2.2327006 -1.1316805 -1.4690542 -1.4998682 -2.379508 -1.6459897 -1.5107062 -2.0349765
-0.9338987 -1.8945335 -1.1517574 -0.6400019 -1.1075647 -1.4190294 -1.7537775 -0.70807266
-3.7871234 -1.0540895 -1.6493498 -2.1257498 -0.5068685 -1.5934808 -1.5338836 -0.832181
-1.1615131 -1.0020082 -1.8949473 -1.3450307 -0.95202523 -0.8868954 -0.92129576 -0.9878637
-1.4249943 -1.3765599 -1.3044442 -0.75186247 -2.2918875 -2.3755612 -1.79764 -0.8761074
00000000: 2899 8fbf 74b3 1dbf a0a4 97bf b23a b9bf
00000010: fdb3 65bf fdb3 08c0 d793 98bf c53a 99bf
00000020: 0540 99bf 51d8 8ebf f287 d4bf 1c02 9ebf
00000030: e1e0 19c0 a5ab ccbf cdfe 03c0 c777 b8bf
00000040: bf11 1cbf 52a4 e8bf 42e8 04c0 fccd 3cbf
00000050: d273 c0bf 77c6 6bbf 0965 bebf 3614 56c0
00000060: 91e4 0ec0 e8da 90bf f809 bcbf aefb bfbf
00000070: dc49 18c0 caaf d2bf d25e c1bf 0e3d 02c0
00000080: fc13 6fbf 1380 f2bf c96c 93bf 2ad7 23bf
00000090: aec4 8dbf c1a2 b5bf c87b e0bf 4044 35bf
000000a0: 3b60 72c0 68ec 86bf e51d d3bf 490c 08c0
000000b0: 22c2 01bf 2ef7 cbbf 4c56 c4bf d009 55bf
000000c0: 76ac 94bf ce41 80bf a28d f2bf f729 acbf
000000d0: edb7 73bf 940b 63bf 0ada 6bbf a3e4 7cbf
000000e0: 3766 b6bf 1d33 b0bf 07f8 a6bf 0f7a 40bf
000000f0: 49ae 12c0 3209 18c0 1119 e6bf 9348 60bf

scale3 f4 [32]
23.471495 30.16041 24.411352 31.158115 30.022781 23.608267 21.207855 25.078756
22.865583 30.795904 24.239267 30.781961 29.329916 29.944284 31.06563 29.76634
31.504318 31.469275 31.471285 31.621641 18.456604 31.82344 22.66684 31.452871
30.851274 25.321087 31.12231 20.792606 23.237617 23.075037 31.27805 22.291597
00000000: 9fc5 bb41 8548 f141 734a c341 d243 f941
00000010: a82e f041 bbdd bc41 b0a9 a941 4ba1 c841
00000020: b7ec b641 035e f641 05ea c141 7541 f641
00000030: aba3 ea41 e58d ef41 6986 f841 7721 ee41
00000040: d808 fc41 13c1 fb41 31c5 fb41 1ff9 fc41
00000050: 20a7 9341 6896 fe41 b055 b541 7b9f fb41
00000060: 69cf f641 9691 ca41 7efa f841 4257 a641
00000070: a4e6 b941 ad99 b841 7239 fa41 3155 b241

bias3 f4 [32]
-0.96403146 0.0013848031 -0.8025228 0.033966802 0.00031837347 -1.0682158 -1.2117286 -0.7256443
-1.1061456 0.00026852117 -0.9454809 -0.0075806594 -0.0029976063 -0.004666216 0.0018215097 0.0043219733
0.008269725 -0.00063726725 -0.00024657018 -0.007298362 -1.3981165 0.06401358 -1.4472666 -0.0009111936
3.8657305e-05 -0.8318862 0.002099029 -1.5804405 -0.796155 -1.3688517 -0.00025609438 -1.4352074
00000000: c4ca 76bf 4882 b53a 2272 4dbf c620 0b3d
00000010: 5deb a639 4cbb 88bf ec19 9bbf d3c3 39bf
00000020: 2e96 8dbf 4dc8 8c39 090b 72bf 2e67 f8bb
00000030: 7d73 44bb 0fe7 98bb b9bf ee3a 579f 8d3b
00000040: be7d 073c 480e 27ba 1746 81b9 1927 efbb
00000050: 7bf5 b2bf 8d19 833d 0840 b9bf 2bdd 6eba
00000060: f723 2238 7ef6 54bf dd8f 093b e04b cabf
00000070: d0d0 4bbf 8836 afbf 6844 86b9 e0b4 b7bf

mean3 f4 [32]
0.0 0.0 0.0 0.0 0.0 0.0 0.0 0.0
0.0 0.0 0.0 0.0 0.0 0.0 0.0 0.0
0.0 0.0 0.0 0.0 0.0 0.0 0.0 0.0
0.0 0.0 0.0 0.0 0.0 0.0 0.0 0.0
00000000: 0000 0000 0000 0000 0000 0000 0000 0000
00000010: 0000 0000 0000 0000 0000 0000 0000 0000
00000020: 0000 0000 0000 0000 0000 0000 0000 0000
00000030: 0000 0000 0000 0000 0000 0000 0000 0000
00000040: 0000 0000 0000 0000 0000 0000 0000 0000
00000050: 0000 0000 0000 0000 0000 0000 0000 0000
00000060: 0000 0000 0000 0000 0000 0000 0000 0000
00000070: 0000 0000 0000 0000 0000 0000 0000 0000

var3 f4 [32]
1.0 1.0 1.0 1.0 1.0 1.0 1.0 1.0
1.0 1.0 1.0 1.0 1.0 1.0 1.0 1.0
1.0 1.0 1.0 1.0 1.0 1.0 1.0 1.0
1.0 1.0 1.0 1.0 1.0 1.0 1.0 1.0
00000000: 0000 803f 0000 803f 0000 803f 0000 803f
00000010: 0000 803f 0000 803f 0000 803f 0000 803f
00000020: 0000 803f 0000 803f 0000 803f 0000 803f
00000030: 0000 803f 0000 803f 0000 803f 0000 803f
00000040: 0000 803f 0000 803f 0000 803f 0000 803f
00000050: 0000 803f 0000 803f 0000 803f 0000 803f
00000060: 0000 803f 0000 803f 0000 803f 0000 803f
00000070: 0000 803f 0000 803f 0000 803f 0000 803f
